…
      "execution_count": null,
      "outputs": [
        {
          "output_type": "stream",
          "text": [
            "Model: \"functional_1\"\n",
            "_________________________________________________________________\n",
            "Layer (type)                 Output Shape              Param #   \n",
            "=================================================================\n",
            "input_1 (InputLayer)         [(None, 28, 28, 1)]       0         \n",
            "_________________________________________________________________\n",
            "conv2d (Conv2D)              (None, 28, 28, 8)         80        \n",
            "_________________________________________________________________\n",
            "batch_normalization (BatchNo (None, 28, 28, 8)         32        \n",
            "_________________________________________________________________\n",
            "activation (Activation)      (None, 28, 28, 8)         0         \n",
            "_________________________________________________________________\n",
            "average_pooling2d (AveragePo (None, 14, 14, 8)         0         \n",
            "_________________________________________________________________\n",
            "conv2d_1 (Conv2D)            (None, 14, 14, 16)        1168      \n",
            "_________________________________________________________________\n",
            "batch_normalization_1 (Batch (None, 14, 14, 16)        64        \n",
            "_________________________________________________________________\n",
            "activation_1 (Activation)    (None, 14, 14, 16)        0         \n",
            "_________________________________________________________________\n",
            "average_pooling2d_1 (Average (None, 7, 7, 16)          0         \n",
            "_________________________________________________________________\n",
            "conv2d_2 (Conv2D)            (None, 7, 7, 32)          4640      \n",
            "_________________________________________________________________\n",
            "batch_normalization_2 (Batch (None, 7, 7, 32)          128       \n",
            "_________________________________________________________________\n",
            "activation_2 (Activation)    (None, 7, 7, 32)          0         \n",
            "_________________________________________________________________\n",
            "conv2d_3 (Conv2D)            (None, 7, 7, 32)          9248      \n",
            "_________________________________________________________________\n",
            "batch_normalization_3 (Batch (None, 7, 7, 32)          128       \n",
            "_________________________________________________________________\n",
            "activation_3 (Activation)    (None, 7, 7, 32)          0         \n",
            "_________________________________________________________________\n",
            "flatten (Flatten)            (None, 1568)              0         \n",
            "_________________________________________________________________\n",
            "dropout (Dropout)            (None, 1568)              0         \n",
            "_________________________________________________________________\n",
            "dense (Dense)                (None, 64)                100416    \n",
            "_________________________________________________________________\n",
            "dense_1 (Dense)              (None, 1)                 65        \n",
            "=================================================================\n",
            "Total params: 115,969\n",
            "Trainable params: 115,793\n",
            "Non-trainable params: 176\n",
            "_________________________________________________________________\n"
          ],
          "name": "stdout"
        }
      ]
    },
    {
      "cell_type": "code",
…
